modelo_entrenado_clima.pth (torch, 452262 bytes, 19 tensors)

fc1.weight f4 [256, 265]
-0.040384687 -0.0500302 0.033586647 -0.023991756 0.0032918148 -0.002432408 -0.015291895 -0.030628296
-0.015921345 -0.016760858 0.033614665 0.040567722 0.03096165 -0.029587729 0.008678627 0.06397521
-0.0034720614 0.021041082 -0.04370966 0.017874228 -0.04495377 0.010857004 0.0020196647 -0.045170777
0.028277725 0.0062961243 0.02287717 0.02228476 -0.024525074 -0.07279954 0.014000216 -0.48347294
-0.039512813 -0.010428909 -0.02303032 -0.010626256 0.0081705 -0.0648688 -0.024973726 0.010070079
0.018605264 0.01985734 -0.022836374 0.03935256 0.03511242 0.013229634 0.032133423 0.007472045
0.011957009 0.005943585 0.025874663 0.012604717 -0.0063928775 -0.01910311 0.023327315 -0.011274522
0.031415332 -0.0033953374 -0.04429225 0.016529854 0.012978323 0.037821565 -0.016976103 -0.054377064
0.023267986 -0.028967319 0.020493807 0.010451305 -0.008471047 0.029205825 -0.029867128 -0.013544152
0.0055393535 -0.022238137 0.048401218 -0.018873775 -0.03510377 0.015980225 0.028113872 0.03257539
0.032401934 0.032109477 -0.04482809 0.048528675 0.010795014 -0.019454975 -0.01017853 0.03387582
-0.04134299 0.022370962 0.008698572 -0.025488261 0.019906478 0.004922769 -0.027089754 9.746634e-05
0.04268538 0.014496278 0.0016347975 -0.01219395 0.018947246 -0.03191725 0.034006312 -0.005973129
0.034554437 0.053983327 0.045525268 -0.010479316 -0.0072494596 -0.0050249426 0.006098979 0.059697896
0.013055456 -0.0026870645 -0.02466162 -0.014674887 0.01596341 0.024047796 0.052919682 -0.048783
0.004645061 -0.0049302746 0.034130197 -0.00021050543 -0.008911598 -0.003436835 0.015450206 -0.036854114
-0.03131426 -0.021485236 -0.0063744267 -0.015015391 0.01984759 -0.0038198486 -0.008066104 -0.012502972
0.0070461747 -0.03175801 -0.015718697 0.013470899 0.008831483 0.019354817 0.05132868 -0.024183767
-0.0107088685 0.0414429 0.022375105 0.0039238143 0.013258181 -0.034802135 0.022427808 -0.01696653
-0.029620161 0.041240923 -0.0152757345 -0.011344318 0.018028112 -0.016689582 -0.012699978 0.015668381
0.015235066 0.00891595 -0.011764639 -0.002787038 -0.043074317 -0.02446924 -0.013263159 -0.006286822
0.016216096 0.01738193 -0.01890001 -0.00541463 0.011942853 0.012440125 0.03316587 0.0154501395
-0.026200779 -0.0030132255 -0.048202876 -0.010960884 0.006330747 0.054816213 0.0021676407 0.032314762
-0.023240067 0.012834135 -0.019996855 0.0075183306 -0.028770678 -0.005129377 0.0061578834 -0.009270441
-0.014192582 0.014482879 -0.016510388 -0.017136727 0.016699191 -0.002557666 -0.026674021 -0.0025953555
-0.025982453 -0.010174269 -0.029969685 0.017172715 -0.022270482 -0.009161012 0.0049646073 0.0062412876
0.001369008 0.015573407 -0.016345704 -0.04443749 -0.009673255 0.0067888494 -0.002908571 0.013126247
0.00079005706 0.0061681005 0.025463674 -0.0019149951 0.013859947 0.0073062377 -0.0039294986 -0.0062669828
0.020663138 -0.03132817 -0.012853929 0.023094999 -0.0013268429 0.017326264 0.021449652 0.036296476
0.008180044 0.0255441 0.010989921 0.0031764144 0.04098663 -0.007916553 -0.007480216 -0.025277449
0.0013445183 0.012125441 -0.0032599291 -0.01575512 0.032964837 0.014401074 -0.01363213 0.045776173
0.018641336 0.0063036904 -0.02609409 -0.017176101 -0.0060356683 -0.025835998 -0.0038910457 -0.0041519133
00000000: 6a6a 25bd 78ec 4cbd 2792 093d 5c8a c4bc
00000010: 7dbb 573b 0969 1fbb db8a 7abc 31e8 fabc
00000020: 7b6d 82bc 114e 89bc 88af 093d 572a 263d
00000030: 49a3 fd3c f761 f2bc cd30 0e3c 6f05 833d
00000040: 868b 63bb 595e ac3c e708 33bd f96c 923c
00000050: 7221 38bd 93e1 313c 5a5c 043b fe04 39bd
00000060: b0a6 e73c b84f ce3b e768 bb3c 878e b63c
00000070: cfe8 c8bc ed17 95bd 2961 653c c489 f7be
00000080: 30d8 21bd 04de 2abc 15aa bcbc bf19 2ebc
00000090: 90dd 053c efd9 84bd b395 ccbc f9fc 243c
000000a0: 116a 983c dcab a23c 5913 bbbc 2630 213d
000000b0: 0ad2 0f3d 1bc1 583c 569e 033d 0ed8 f43b
000000c0: 55e7 433c 68c2 c23b 1af7 d33c 0484 4e3c
000000d0: 587b d1bb 207e 9cbc ed18 bf3c c6b8 38bc
000000e0: 5dad 003d 4f84 5ebb ca6b 35bd 9e69 873c
000000f0: 08a3 543c c9ea 1a3d 7811 8bbc 7cba 5ebd
00000100: 819c be3c df4c edbc a1e2 a73c f33b 2b3c
00000110: 25ca 0abc 0e41 ef3c e8ab f4bc 4ae8 5dbc
00000120: 7783 b53b c12c b6bc 5b40 463d 2d9d 9abc
00000130: f9c8 0fbd f6e8 823c 104f e63c c66d 053d
00000140: e4b7 043d 3a85 033d a99d 37bd 01c6 463d
00000150: 92dd 303c 0a60 9fbc d9c3 26bc 5fc1 0a3d
00000160: 4457 29bd 4f43 b73c 7584 0e3c c2cc d0bc
00000170: e912 a33c 2e4f a13b 55eb ddbc d866 cc38
00000180: ddd6 2e3d cc81 6d3c b446 d63a 22c9 47bc
00000190: 4137 9b3c aabb 02bd 344a 0b3d 3dba c3bb
000001a0: f488 0d3d 9f1d 5d3d b478 3a3d 70b1 2bbc
000001b0: e08c edbb 46a8 a4bb f2d9 c73b c885 743d
000001c0: 8de6 553c 7619 30bb 2a07 cabc f06e 70bc
000001d0: b2c5 823c e2ff c43c 4fc2 583d afd0 47bd
000001e0: 9935 983b 248e a1bb 1bcc 0b3d 1fbb 5cb9
000001f0: f301 12bc 863c 61bb dc22 7d3c 57f4 16bd
00000200: 6243 00bd ce01 b0bc 91e0 d0bb 1d03 76bc
00000210: 6a97 a23c 6d56 7abb b127 04bc 44d9 4cbc
00000220: 99e3 e63b b014 02bd 7fc4 80bc 0cb5 5c3c
00000230: edb1 103c fe8d 9e3c 063e 523d 091d c6bc
00000240: 4074 2fbc 08c0 293d ff4b b73c 5793 803b
00000250: d738 593c af8c 0ebd 86ba b73c 64fd 8abc
00000260: fba5 f2bc 3eec 283d 1347 7abc 85dd 39bc
00000270: b1af 933c 97b8 88bc 9213 50bc fa5a 803c
00000280: 809c 793c 3414 123c 79c0 40bc bda6 36bb
00000290: b26e 30bd b773 c8bc b94d 59bc af01 cebb
000002a0: 9ed7 843c 8d64 8e3c 32d4 9abc 356d b1bb
000002b0: f5ab 433c abd1 4b3c efd8 073d 9522 7d3c
000002c0: 04a3 d6bc 8979 45bb 6170 45bd 4895 33bc
000002d0: 2872 cf3b f786 603d fa0e 0e3b 7c5c 043d
000002e0: f461 bebc 4446 523c 72d0 a3bc 545c f63b
000002f0: 7cb0 ebbc 5514 a8bb 12c8 c93b 0ce3 17bc
00000300: 0188 68bc 9949 6d3c cb40 87bc 5262 8cbc
00000310: becc 883c 849e 27bb 7a83 dabc d716 2abb
00000320: 27d9 d4bc fab1 26bc fc82 f5bc cbad 8c3c
00000330: 9670 b6bc 1218 16bc 25ae a23b b783 cc3b
00000340: 4970 b33a 9a27 7f3c 6de7 85bc 1604 36bd
00000350: 927c 1ebc ff74 de3b b99d 3ebb 780f 573c
00000360: d51b 4f3a c71d ca3b 3299 d03c 9300 fbba
00000370: d514 633c 2a69 ef3b 06c3 80bb 435b cdbb
00000380: be45 a93c f851 00bd 4999 52bc b931 bd3c
00000390: 76e9 adba cfef 8d3c 2eb7 af3c 9dab 143d
000003a0: 9705 063c dc41 d13c 120f 343c 642b 503b
000003b0: 99e1 273d 6eb4 01bc 9a1c f5bb a712 cfbc
000003c0: 8c3a b03a c9a9 463c 89a4 55bb e210 81bc
000003d0: 2306 073d 7bf2 6b3c 4c59 5fbc cc7f 3b3d
000003e0: b7b5 983c 308f ce3b 46c3 d5bc e5b4 8cbc
000003f0: dbc6 c5bb 04a6 d3bc ea00 7fbb c60c 88bb

fc1.bias f4 [256]
-0.017477803 0.03324127 0.03816366 -0.0029910402 -0.03527689 -0.03478811 0.0047036307 0.052647214
0.012915989 0.009704642 0.052416924 0.03871862 0.041663133 -0.052298643 0.018748825 0.047889475
-0.0011332509 0.055927753 -0.040770724 0.010245697 0.041202452 0.031172043 0.045455176 -0.0559135
-0.0011522532 -0.058549147 0.030807463 -0.0593045 0.055599805 -0.052555524 -0.057967488 -0.044705793
0.03252289 -0.032591905 0.04879137 -0.053997114 -0.057586603 -0.045949053 -0.027100079 0.058145303
0.018324818 0.057018902 -0.0036090517 -0.002507438 0.003199192 -0.05728722 -0.05724439 -0.02985006
0.0024159905 0.02042719 -0.05388259 0.058590792 -0.0040676636 0.0012141643 0.016107304 0.024945194
-0.047343682 -0.0285574 -0.013191604 0.024308927 -0.049435604 -0.015493849 0.009634362 -0.033522148
-0.021481872 0.046104897 0.058185387 -0.05694942 -0.039504148 0.059658315 -0.052033298 -0.030006377
0.006699577 -0.0007334755 0.0024091927 0.058185622 0.047926236 0.041585047 0.045491993 0.0291554
0.022312887 0.043073002 0.04448142 -0.033763357 -0.03296651 -0.053488277 0.005201141 -0.00015248968
-0.05967668 0.02664052 0.05107198 -0.022866512 0.009586989 -0.02044628 0.014119109 -0.027708983
-0.03088525 0.012825273 0.018495023 -0.0070711197 0.03616328 0.05825402 0.00060722686 -0.024964157
0.013803579 0.053243943 0.0219627 -0.040235933 0.024795644 -0.013370077 0.030107245 -0.031997804
0.022540268 0.0014887147 -0.0484022 0.02680776 0.061740737 -0.024785314 0.035266913 -0.04245326
0.017803904 -0.035877388 -0.04103991 0.02865627 -0.046355486 0.00083207194 -0.015363576 -0.014185192
-0.04335967 -0.009090809 -0.04156475 -0.060313586 -0.049309127 0.02039712 -0.0027922476 -0.04515895
0.008432422 -0.05970374 -0.018079652 -0.040332504 -0.01170673 0.0072958013 0.055274714 0.0085348245
-0.0534455 0.01807219 -0.04916574 -0.024713779 0.0012248773 0.057233226 -0.05373886 0.036997065
-0.012684136 0.036468104 -0.03915607 0.04114179 -0.03332903 0.006596001 0.059807617 0.017520431
-0.029767426 -0.021965293 -0.007792404 -0.00820319 -0.058146562 -0.01681245 -0.055469297 0.029039336
0.011029557 -0.04479805 -0.061999373 0.004927216 0.029166555 0.031768717 0.03181913 0.043619078
-0.042737618 -0.00042195956 -0.0051513547 0.050014727 -0.024969758 -0.0364936 -0.008077389 0.028080853
-0.0059308317 -0.025743172 0.009957093 0.037344526 -0.049523376 0.009015897 0.0048799827 0.0063735526
-0.021624785 -0.057140887 -0.060529336 0.01617942 -0.04588943 -0.021975683 0.054240465 0.055945184
0.055042468 -0.047681585 -0.015576044 0.0034795355 0.037671983 -0.0041688075 0.046095375 0.008108558
-0.049926296 0.047897372 0.027265863 -0.057549182 0.004460283 -0.014301443 -0.0069287806 0.0007209274
-0.031900533 0.03113726 -0.005515986 0.04073055 0.018865328 -0.0068114586 -0.024884868 -0.04058122
-0.050768614 0.0275082 0.05246528 0.011658631 0.056975458 0.022348152 0.012266238 0.04245122
-0.005792603 -0.0447007 0.012691758 0.040657714 -0.034289397 -0.01402234 0.03971122 -0.0004963999
0.03189527 0.02231343 0.033120535 0.049666304 0.053086966 0.013573749 0.049820237 0.03608855
0.045944016 -0.039654776 -0.004399485 -0.019209595 0.03149986 0.0026213708 0.012251798 -0.0044313907
00000000: 9c2d 8fbc ff27 083d 7f51 1c3d 5405 44bb
00000010: 807e 10bd fa7d 0ebd ea20 9a3b 9ba4 573d
00000020: 969d 533c 3800 1f3c 21b3 563d 6a97 1e3d
00000030: f6a6 2a3d 1a37 56bd 2397 993c c127 443d
00000040: 9789 94ba 8014 653d 34ff 26bd 91dd 273c
00000050: e7c3 283d 835c ff3c 352f 3a3d 8e05 65bd
00000060: 3407 97ba 3bd1 6fbd ef5f fc3c 47e9 72bd
00000070: 9fbc 633d 7644 57bd 516f 6dbd 6c1d 37bd
00000080: b936 053d 177f 05bd 76d9 473d 142c 5dbd
00000090: eedf 6bbd 1335 3cbd fc00 debc c529 6e3d
000000a0: ee1d 963c a78c 693d d785 6cbb d453 24bb
000000b0: 89a9 513b 01a6 6abd 1879 6abd 1d88 f4bc
000000c0: 9855 1e3b ec56 a73c feb3 5cbd e6fc 6f3d
000000d0: 094a 85bb 9824 9f3a 77f3 833c dd59 cc3c
000000e0: 73eb 41bd 35f1 e9bc 9921 58bc 8423 c73c
000000f0: fd7c 4abd ead9 7dbc 71d9 1d3c 854e 09bd
00000100: c0fa afbc 7dd8 3c3d cd53 6e3d cc43 69bd
00000110: 1acf 21bd 475c 743d de20 55bd efcf f5bc
00000120: 2088 db3b b546 40ba 8ce3 1d3b 0c54 6e3d
00000130: 4d4e 443d 1555 2a3d d055 3a3d 4ed7 ee3c
00000140: 84c9 b63c 516d 303d 2632 363d 724b 0abd
00000150: e407 07bd 8616 5bbd 556e aa3b a3e5 1fb9
00000160: 896f 74bd 383d da3c da30 513d 8d52 bbbc
00000170: bf12 1d3c f57e a7bc d653 673c f3fd e2bc
00000180: 1003 fdbc 1821 523c e082 973c dab4 e7bb
00000190: f31f 143d c49b 6e3d 4e2e 1f3a a281 ccbc
000001a0: 6828 623c 5216 5a3d 1feb b33c 6fce 24bd
000001b0: 3c20 cb3c 2b0e 5bbc 78a3 f63c 2110 03bd
000001c0: 5ea6 b83c fa20 c33a 6341 46bd f39b db3c
000001d0: dbe3 7c3d 920a cbbc 0a74 103d 78e3 2dbd
000001e0: 7ed9 913c 2bf4 12bd 7719 28bd 8ec0 ea3c
000001f0: 40df 3dbd 671f 5a3a 82b7 7bbc 0269 68bc
00000200: e999 31bd 9ef1 14bc cd3f 2abd 610b 77bd
00000210: 5ef8 49bd dc17 a73c 24fe 36bb 97f8 38bd
00000220: 2428 0a3c e98b 74bd c71b 94bc b233 25bd
00000230: 96cd 3fbc 9e11 ef3b bd67 623d a6d5 0b3c
00000240: abe9 5abd 210c 943c 0462 49bd 8d74 cabc
00000250: 108c a03a 636d 6a3d 471d 5cbd 3c8a 173d
00000260: 1fd1 4fbc 945f 153d 1e62 20bd 4b84 283d
00000270: 0584 08bd 4423 d83b d5f8 743d 0287 8f3c
00000280: d1da f3bc 8ff0 b3bc 6c57 ffbb ac66 06bc
00000290: 172b 6ebd 43ba 89bc c633 63bd e7e3 ed3c
000002a0: 51b5 343c 297e 37bd 0ef3 7dbd 7c74 a13b
000002b0: b3ee ee3c ea1f 023d c754 023d eba9 323d
000002c0: a40d 2fbd 743a ddb9 b2cc a8bb 3edc 4c3d
000002d0: 618d ccbc 507a 15bd 0657 04bc d109 e63c
000002e0: 6c57 c2bb 58e3 d2bc 1323 233c 93f6 183d
000002f0: 06d9 4abd 6ab7 133c 43e8 9f3b 3cd9 d03b
00000300: 7626 b1bc 900c 6abd 9ced 77bd b48a 843c
00000310: 8ef6 3bbd 5906 b4bc 402b 5e3d c726 653d
00000320: 3674 613d c44d 43bd aa32 7fbc eb08 643b
00000330: f04d 1a3d 7e9a 88bb 81ce 3c3d c2d9 043c
00000340: 847f 4cbd 0930 443d a95c df3c b1b8 6bbd
00000350: 9127 923b 9950 6abc d30a e3bb 9efc 3c3a
00000360: 22aa 02bd 9113 ff3c 72bf b4bb 14d5 263d
00000370: 768b 9a3c a832 dfbb 5adb cbbc 7e38 26bd
00000380: c0f2 4fbd e058 e13c d5e5 563d d803 3f3c
00000390: 195f 693d 7913 b73c 55f8 483c 55e1 2d3d
000003a0: e0cf bdbb 1518 37bd 17f1 4f3c b488 263d
000003b0: 0a73 0cbd f5bd 65bc 3ba8 223d d520 02ba
000003c0: 9da4 023d a8ca b63c 66a9 073d e56e 4b3d
000003d0: b871 593d 6e64 5e3c 4e10 4c3d 96d1 133d
000003e0: cb2f 3c3d 0c6d 22bd 8e29 90bb 715d 9dbc
000003f0: ff05 013d 4ecb 2b3b c4bb 483c 3335 91bb

fc2.weight f4 [128, 256]
0.0403841 0.020778855 -0.001171929 -0.02087797 -0.08234596 -0.018681578 -0.011776205 -0.019220091
-0.019136725 -0.036688246 -0.007884837 0.0020002339 0.026534861 0.020458777 -0.0057005016 -0.027441304
-0.04218591 0.045136675 0.006097144 0.0002640007 0.083259225 -0.02080188 -0.04354532 -0.015340501
0.010728977 0.012254882 -0.057760946 -0.07206124 -0.0016956587 -0.06887398 0.018357443 0.010418251
-0.012562546 -0.011791646 -0.028583141 -0.012509375 0.015820505 0.053457838 -0.007814216 -0.008885726
-0.071190834 -0.054004766 0.0016768124 -0.02543721 0.06724951 -0.026620211 -0.002896033 -0.0073110373
-0.08499605 -0.0131879095 0.045856208 0.024050284 0.0055365767 -0.0365717 0.0478284 -0.015039606
0.0074943933 -0.013511269 0.02447185 -0.040548258 -0.05246169 -0.035486072 0.026349839 -0.06726095
0.005473906 -0.0008119932 0.037679303 0.0064368383 -0.016143223 -0.012396792 -0.0260558 -0.062516846
-0.025596576 -0.089663155 -0.017884815 0.030272508 -0.0607474 -0.04258183 0.0649481 -0.033296715
-0.0057369787 0.017851433 0.084236234 -0.0009309447 0.032496836 -0.05433257 0.01077123 0.03547532
-0.016173527 -0.012272102 -0.03790377 0.011317205 -0.012683711 0.0602094 0.037960153 0.049832404
-0.02864233 -0.059787955 -0.06349236 -0.09321821 0.0052677384 -0.038889617 -0.09149886 0.047655225
-0.01567238 0.02825656 -0.0056186323 -0.0046210643 -0.0033174534 -0.00023356185 0.029568756 -0.014378495
0.04404432 0.046646874 0.08065786 0.038946833 -0.012230147 -0.018484911 -0.0062228246 -0.050308064
0.009600855 0.013259631 -0.012601876 -0.022920478 -0.04174505 0.02299557 0.029742902 0.031225884
0.009864554 0.020221692 0.020784365 -0.036727443 -0.023704978 -0.069852054 -0.05949199 -0.025806874
0.006984525 -0.007665565 0.023050565 0.015104071 -0.034344014 -0.04743271 -0.0337677 0.0052901865
-0.004012548 0.020021288 -0.089297205 -0.08203515 -0.071722746 -0.03471082 -0.014198975 0.03664327
-0.011664711 0.022613663 -0.047421314 -0.0052944343 -0.059071057 -0.021603374 0.034949128 -0.052541733
0.013316593 -0.0061746845 0.026189938 -0.05876891 -0.058590382 -0.046076905 0.0002582534 0.00067100144
-0.0123711685 -0.01956257 0.002114466 0.028285036 0.062295772 -0.018119214 -0.052224103 0.06745471
-0.026371138 0.030067518 0.0461911 -0.00017140602 0.054959584 0.030494172 -0.047852747 0.034534134
-0.00173063 -0.0015613516 -0.026662616 0.030217867 -0.012253424 0.0062550995 0.01184878 -0.051742863
-0.0025891848 -0.05727682 -0.005433568 0.013570964 0.018127995 -0.008167051 -0.027069226 -0.046111662
-0.039658364 0.06550092 0.0064357626 0.009172833 0.04601623 -0.02424587 -0.025166795 0.062316712
-0.0002501245 0.058277432 0.06864429 0.046442356 0.02815882 -0.033781663 -0.0779786 -0.033320323
0.034570538 0.0060111703 -0.05685203 -0.011462114 -0.0014144059 0.023505973 -0.011381217 0.029224252
-0.061350793 -0.007666086 -0.049068455 0.0036689667 -0.062387384 -0.022710368 -0.022022698 0.011220504
0.052600607 -0.0028035024 0.009383552 -0.05241361 0.011796863 0.018023029 0.0067272824 -0.035366066
0.03380354 -0.008241129 -0.038664248 -0.024762223 0.009990497 -0.019117903 -0.013432416 -0.012113714
-0.043859597 -0.020893173 -0.0507215 -0.037923384 0.018375283 -0.046492495 -0.08407179 -0.0053543868
00000000: cc69 253d 6b38 aa3c 699b 99ba 4708 abbc
00000010: 00a5 a8bd 1c0a 99bc fcf0 40bc 7473 9dbc
00000020: 9fc4 9cbc 6a46 16bd 672f 01bc 5b16 033b
00000030: a35f d93c 2a99 a73c 46cb babb 96cc e0bc
00000040: 22cb 2cbd 3ce1 383d 8dca c73b 9369 8a39
00000050: d083 aa3d b468 aabc 945c 32bd ba56 7bbc
00000060: 97c8 2f3c b3c8 483c be96 6cbd d894 93bd
00000070: dd40 deba cd0d 8dbd 5962 963c 50b1 2a3c
00000080: 23d3 4dbc bf31 41bc 3127 eabc 1ff4 4cbc
00000090: 019a 813c 9bf6 5a3d 3307 00bc 7095 11bc
000000a0: 80cc 91bd 1a34 5dbd 7dc8 db3a b261 d0bc
000000b0: 1cba 893d a112 dabc 5fcb 3dbb 6d91 efbb
000000c0: 6912 aebd 1a12 58bc b8d3 3b3d 1a05 c53c
000000d0: 2c6c b53b 35cc 15bd b6e7 433d ae68 76bc
000000e0: 8793 f53b 5f5e 5dbc 3079 c83c ee15 26bd
000000f0: 12e2 56bd d859 11bd 9edb d73c 1cc0 89bd
00000100: 745e b33b f1db 54ba 9d55 1a3d 1dec d23b
00000110: cb3e 84bc ea1b 4bbc f972 d5bc d508 80bd
00000120: e9af d1bc 51a1 b7bd 2d83 92bc 0dfe f73c
00000130: 44d2 78bd 496a 2ebd 8203 853d 2362 08bd
00000140: 44fd bbbb 2b3d 923c 0c84 ac3d a40a 74ba
00000150: 671b 053d d48b 5ebd d079 303c 924e 113d
00000160: 587e 84bc ed10 49bc fc40 1bbd cc6b 393c
00000170: 57cf 4fbc 229e 763d 1b7c 1b3d 101d 4c3d
00000180: 52a3 eabc 37e4 74bd 4808 82bd 30e9 bebd
00000190: fe9c ac3b b84a 1fbd c163 bbbd 2032 433d
000001a0: 5d63 80bc 4d7a e73c 811c b8bb 4c6c 97bb
000001b0: a269 59bb 48e8 74b9 2d3a f23c c793 6bbc
000001c0: d167 343d cb10 3f3d f32f a53d b786 1f3d
000001d0: f460 48bc ab6d 97bc d6e8 cbbb d40f 4ebd
000001e0: e84c 1d3c ec3e 593c 1978 4ebc bac3 bbbc
000001f0: dcfc 2abd 3561 bc3c 63a7 f33c 6dcd ff3c
00000200: f09e 213c f6a7 a53c f943 aa3c 846f 16bd
00000210: f130 c2bc 980e 8fbd dfad 73bd f068 d3bc
00000220: 71de e43b 6b2f fbbb 8ad4 bc3c 1177 773c
00000230: 4fac 0cbd cd48 42bd 0050 0abd 4d59 ad3b
00000240: b17b 83bb af03 a43c 74e1 b6bd 0b02 a8bd
00000250: 60e3 92bd ef2c 0ebd d1a2 68bc 4117 163d
00000260: 581d 3fbc 4a40 b93c da3c 42bd ef7c adbb
00000270: 7ef4 71bd 8ff9 b0bc d126 0f3d 0036 57bd
00000280: d72d 5a3c 0255 cabb 488c d63c abb7 70bd
00000290: 78fc 6fbd 23bb 3cbd 2f66 8739 25e6 2f3a
000002a0: 71b0 4abc af41 a0bc da92 0a3b 05b6 e73c
000002b0: da29 7f3d bf6e 94bc f1e8 55bd b225 8a3d
000002c0: 4908 d8bc 2850 f63c e132 3d3d 74bb 33b9
000002d0: 4d1d 613d eace f93c 3e01 44bd aa73 0d3d
000002e0: 4fd6 e2ba 44a6 ccba 8f6b dabc 768b f73c
000002f0: 96c2 48bc 94f7 cc3b 6321 423c 53f0 53bd
00000300: 50af 29bb 199b 6abd 120c b2bb c058 5e3c
00000310: 2981 943c 18cf 05bc 48c0 ddbc 95df 3cbd
00000320: cf70 22bd 5925 863d 17e3 d23b a649 163c
00000330: 847b 3c3d 469f c6bc 982a cebc cf3f 7f3d
00000340: 2423 83b9 51b4 6e3d 6195 8c3d 573a 3e3d
00000350: 53ad e63c a45e 0abd 3fb3 9fbd e47a 08bd
00000360: d699 0d3d 5af9 c43b addd 68bd 97cb 3bbc
00000370: 9663 b9ba 998f c03c 4978 3abc b367 ef3c
00000380: f84a 7bbd ca33 fbbb 01fc 48bd 0c73 703b
00000390: ea89 7fbd 180b babc f268 b4bc 34d6 373c
000003a0: bc73 573d f7ba 37bb 78bd 193c a7af 56bd
000003b0: a147 413c 08a5 933c 8970 dc3b 02dc 10bd
000003c0: 9575 0a3d cd05 07bc 675e 1ebd 25da cabc
000003d0: 2eaf 233c 269d 9cbc a313 5cbc 9978 46bc
000003e0: 1fa6 33bd 2928 abbc 59c1 4fbd 8d55 1bbd
000003f0: c387 963c ea6e 3ebd d52d acbd da73 afbb

fc2.bias f4 [128]
-0.027110213 0.043794066 -0.03479561 -0.027167222 -0.033443484 -0.02133133 0.044342287 0.057106238
0.054272104 -0.042884123 -0.041226543 0.018862437 0.04600793 0.052876156 -0.049939156 -0.047379527
-0.035016697 0.054749247 -0.054307804 -0.030672932 -0.0073216017 -0.0054649673 -0.03220111 0.009340709
0.053831276 -0.027678855 0.048786696 -0.057486754 0.05692749 0.05160605 0.0119347405 0.009758929
0.041028023 -0.05736484 0.03311118 -0.0020419697 -0.015935278 0.043390382 0.04320817 -0.052299455
-0.0511112 0.014936213 -0.016524415 -0.020935602 0.022096701 0.057270702 0.0048835855 -0.029479017
-0.028649027 0.040201236 0.05177362 0.027752087 0.032397985 -0.03897182 -0.03775417 -0.022203837
-0.05093674 -0.02980116 -0.055200867 0.052988086 -0.04954353 -0.038214464 -0.047990862 -0.04070783
0.023546757 -0.0018581821 -0.065695874 0.049077954 -0.062304 -0.0078042825 -0.00019257535 0.034911368
0.031793773 -0.007046125 0.040313922 -0.006804486 -0.038891546 -0.04286477 0.05212716 0.04895128
0.011230937 0.047610372 0.02519828 0.037629433 -0.04755509 -0.04218239 -0.05520758 0.01684151
0.028288798 0.010294891 -0.05941648 0.0054556904 0.0049370537 0.023911951 0.03219529 0.03900904
0.05140395 -0.0472067 0.0056798896 0.04920441 -0.04478274 0.049866136 0.0061904797 0.04645131
0.033896334 -0.026038572 -0.041639168 -0.031227166 -0.0021815873 -0.012413056 -0.051139142 -0.060431365
0.0590776 0.0035242701 -0.04398651 0.0038092935 -0.053766523 -0.0155657055 0.011355813 0.061780278
-0.040851787 0.044642415 -0.060224935 -0.03866995 0.04143767 0.0104404185 0.056467008 0.019624634
00000000: 3d16 debc 6861 333d d785 0ebd cb8d debc
00000010: 09fc 08bd 0bbf aebc 42a0 353d 3be8 693d
00000020: 6d4c 5e3d 43a7 2fbd 2add 28bd 6685 9a3c
00000030: d072 3c3d ab94 583d 008d 4cbd 0911 42bd
00000040: ab6d 0fbd bf40 603d dc71 5ebd cd45 fbbc
00000050: 0cea efbb 7813 b3bb 50e5 03bd c609 193c
00000060: 2f7e 5c3d c4be e2bc 8fd4 473d 3b77 6bbd
00000070: cd2c 693d de60 533d ee89 433c eae3 1f3c
00000080: 000d 283d 65f7 6abd 979f 073d 91d2 05bb
00000090: b38a 82bc 1dba 313d 0dfb 303d f437 56bd
000000a0: fa59 51bd 05b7 743c 365e 87bc 2481 abbc
000000b0: 2404 b53c af94 6a3d 7c06 a03b fb7d f1bc
000000c0: 5db1 eabc 0daa 243d 9310 543d 5858 e33c
000000d0: c0b3 043d eaa0 1fbd 1ea4 1abd d2e4 b5bc
000000e0: 0ba3 50bd 9021 f4bc 4e1a 62bd 090a 593d
000000f0: 28ee 4abd c586 1cbd 1192 44bd 41bd 26bd
00000100: 21e5 c03c 3f8e f3ba 8f8b 86bd f705 493d
00000110: 7b32 7fbd 11bb ffbb 0dee 49b9 39ff 0e3d
00000120: 303a 023d 2ee3 e6bb 3620 253d 2af8 debb
00000130: be4c 1fbd f892 2fbd 4a83 553d 2381 483d
00000140: f701 383c 1803 433d a06c ce3c 5221 1a3d
00000150: 20c9 42bd 71c7 2cbd 5821 62bd 35f7 893c
00000160: e9bd e73c e7ab 283c b25e 73bd a6c5 b23b
00000170: 02c7 a13b ffe2 c33c 35df 033d f1c7 1f3d
00000180: f38c 523d d05b 41bd 5e1e ba3b 908a 493d
00000190: 1b6e 37bd 6f40 4c3d 82d9 ca3b bb43 3e3d
000001a0: e2d6 0a3d d84e d5bc d58d 2abd 1dd0 ffbc
000001b0: f6f8 0ebb 2160 4bbc 4777 51bd e186 77bd
000001c0: 5afb 713d 71f7 663b 332b 34bd 57a5 793b
000001d0: 493a 5cbd 4d07 7fbc bb0d 3a3c 510d 7d3d
000001e0: 3454 27bd f7da 363d 6cae 76bd 6264 1ebd
000001f0: 8cba 293d 4a0e 2b3c f349 673d d7c3 a03c

fc3.weight f4 [64, 128]
-0.008419302 -0.016719801 -0.072229356 0.016350916 -0.04212035 -0.010187153 -0.025903795 0.005812892
-0.02525927 0.046709422 0.034520477 0.07468301 0.00080361386 0.021699758 0.07055232 0.08989371
-0.0047398414 -0.024414724 0.033329103 -0.022639697 0.010679813 -0.011084777 0.07299113 0.00044654674
-0.08044788 0.058256768 -0.06085654 -0.056331802 0.07718191 -0.07620376 0.02179143 -0.0062480103
0.023863437 -0.041741077 -0.01986618 -0.05597003 0.070164256 0.050144695 -0.07147181 -0.02373648
-0.05809299 0.0074683824 -0.031094467 0.029623117 -0.008894509 -0.034608062 0.0060398825 -0.06240409
-0.005731521 0.07312535 0.08223053 0.07446245 -0.055394072 -0.03914788 -0.042289633 -0.005785951
-0.028257992 -0.0062655495 0.049500756 -0.115112394 -0.01913975 -0.054988895 0.0101739 -0.041231725
0.031934734 -0.012368584 0.020970536 -0.0010091024 -0.037085377 0.050731145 -0.057748552 0.04875526
0.0035958048 0.032526348 -0.0067417147 0.026439179 -0.045627885 0.06529589 -0.07945081 0.060790394
0.004230923 0.025805684 -0.028466262 -0.01945575 0.010837438 -0.027796635 0.04587662 -0.0095241275
-0.035841227 -0.0388439 0.002379803 0.061795015 0.032214243 -0.09055261 -0.012898756 -0.017628001
-0.05723469 -0.050525583 0.013450175 -0.06317209 0.012330034 -0.016120369 0.05897454 0.011516905
-0.021594293 -0.005448384 -0.020756137 -0.037438776 -0.009879521 -0.027054118 -0.048523456 -0.11217855
-0.014416529 -0.012253151 0.046535768 0.012430183 -0.07748024 -0.053508617 0.078779414 0.0004844864
-0.04345731 -0.043659735 0.05796223 0.06208666 0.003674017 -0.024652315 -0.077326134 -0.0032920581
-0.05222206 -0.028744282 -0.027289294 0.009089376 0.0708875 -0.05597742 -0.0018873586 -0.035636462
-0.071497135 0.07130713 -0.0035842247 0.080047265 0.026917372 -0.05354797 -0.051768273 -0.10902693
-0.014572769 -0.07052854 -0.05356723 -0.002309967 0.035367157 -0.023758534 -0.021783207 -0.010076785
0.03882682 -0.049860697 -0.036490053 -0.04250535 -0.038810354 -0.07176891 -0.015490687 -0.005108895
0.008643166 0.0039312155 -0.07426195 -0.053781036 -0.030245027 -0.08741337 -0.009545224 -0.069514774
-0.072936125 -0.00842609 -0.04235018 0.018453652 0.017143574 -0.05071419 -0.039078884 0.015434353
0.027509833 -0.06459546 -0.058423765 -0.0025211102 0.05708272 0.06418398 -1.5499358e-05 -0.009825075
-0.050138585 -0.06931859 -0.04471753 0.07743616 -0.026428053 -0.011888761 0.017350229 0.023621228
0.011694769 0.013271284 0.10887138 -0.021862099 -0.04763509 -0.08233887 0.039989885 -0.09500359
-0.019759549 -0.03479409 0.098390475 -0.09800531 -0.024884861 -0.03829945 -0.05447271 0.02348578
-0.027366856 -0.068738624 -0.08663174 -0.034415364 -0.037068006 0.070013106 -0.016125448 -0.046304204
-0.09918486 -0.01828029 0.07704708 -0.0063771345 -0.05414635 -0.04565503 0.04595626 -0.03254289
-0.01708063 0.08184294 -0.038153034 0.07650558 -0.0071461205 -0.0028333936 0.01977311 0.08034852
-0.03424486 0.010800267 -0.02274705 0.07730564 0.049433228 -0.054589454 -0.039723895 -0.14391354
-0.013984496 0.026707398 0.03449252 0.00964889 0.028335627 0.054201633 -0.027182814 0.021086747
-0.02998346 0.009547521 0.039089087 -0.051300395 -0.029710991 -0.036298163 0.06822954 -0.030693563
00000000: 1df1 09bc f7f7 88bc fcec 93bd 5bf2 853c
00000010: 6386 2cbd 04e8 26bc 3234 d4bc 137a be3b
00000020: 87ec cebc 6152 3f3d 5865 0d3d 68f3 983d
00000030: 9da9 523a b1c3 b13c bc7d 903d 321a b83d
00000040: ac50 9bbb 6301 c8bc 1984 083d e376 b9bc
00000050: 62fa 2e3c ed9c 35bc 607c 953d 7d1e ea39
00000060: dcc1 a4bd a69e 6e3d b544 79bd 2dbc 66bd
00000070: 8d11 9e3d b810 9cbd f183 b23c 1cbc ccbb
00000080: 417d c33c b1f8 2abd 66be a2bc d540 65bd
00000090: 47b2 8f3d 8664 4d3d d05f 92bd 0273 c2bc
000000a0: eaf2 6dbd 55b9 f43b d3b9 febc 2eac f23c
000000b0: 46ba 11bc 2fc1 0dbd 35ea c53b 6e9b 7fbd
000000c0: 7ccf bbbb bec2 953d 7b68 a83d c57f 983d
000000d0: e5e4 62bd 8759 20bd e537 2dbd 1398 bdbb
000000e0: 4e7d e7bc 3d4f cdbb 4ec1 4a3d 0cc0 ebbd
000000f0: f7ca 9cbc 093c 61bd 6eb0 263c 99e2 28bd
00000100: ffcd 023d 9aa5 4abc 67ca ab3c dc43 84ba
00000110: d6e6 17bd 76cb 4f3d bf89 6cbd 98b3 473d
00000120: 98a7 6b3b 593a 053d 9ae9 dcbb fa96 d83c
00000130: 4ee4 3abd dab9 853d 1bb7 a2bd 59ff 783d
00000140: 8ea3 8a3b 7166 d33c 1432 e9bc aa61 9fbc
00000150: 828f 313c c5b5 e3bc 1fe9 3b3d 160b 1cbc
00000160: 40ce 12bd c81a 1fbd 78f6 1b3b c51c 7d3d
00000170: 15f3 033d a673 b9bd 4e55 53bc 9968 90bc
00000180: ec6e 6abd eaf3 4ebd 1f5e 5c3c 5e60 81bd
00000190: e903 4a3c dd0e 84bc 4a8f 713d 67b1 3c3c
000001a0: 84e6 b0bc 5c88 b2bb c608 aabc 6759 19bd
000001b0: b7dd 21bc 99a0 ddbc 88c0 46bd debd e5bd
000001c0: 4e33 6cbc 71c1 48bc 4a9c 3e3d f7a7 4b3c
000001d0: f6ad 9ebd da2b 5bbd 1a57 a13d aa02 fe39
000001e0: 4b00 32bd 8dd4 32bd ce69 6d3d 954e 7e3d
000001f0: c7c7 703b a7f3 c9bc 2a5d 9ebd 92bf 57bb
00000200: cce6 55bd 2179 ebbc cc8d dfbc 9beb 143c
00000210: 772d 913d 9448 65bd 3f61 f7ba 8af7 11bd
00000220: 176d 92bd 7909 923d 50e5 6abb d2ef a33d
00000230: d281 dc3c 1e55 5bbd f80a 54bd 8349 dfbd
00000240: a0c2 6ebc 4471 90bd 5069 5bbd d162 17bb
00000250: 27dd 103d 42a1 c2bc b272 b2bc 1a19 25bc
00000260: df08 1f3d bb3a 4cbd 9876 15bd 171a 2ebd
00000270: 9bf7 1ebd 94fb 92bd a7cc 7dbc 8468 a7bb
00000280: 119c 0d3c 6dd1 803b a616 98bd 8149 5cbd
00000290: 6bc4 f7bc c805 b3bd 9263 1cbc c35d 8ebd
000002a0: 895f 95bd 950d 0abc 6277 2dbd 1d2c 973c
000002b0: ae70 8c3c afb9 4fbd 2e11 20bd 5ee0 7c3c
000002c0: 4d5c e13c a04a 84bd c24d 6fbd 3639 25bb
000002d0: 92cf 693d e472 833d 9e04 82b7 5af9 20bc
000002e0: 1e5e 4dbd e8f6 8dbd bb29 37bd d996 9e3d
000002f0: a57f d8bc 14c9 42bc 1122 8e3c 4e81 c13c
00000300: 6b9b 3f3c cd6f 593c f5f7 de3d 2518 b3bc
00000310: 031d 43bd 48a1 a8bd 6fcc 233d 3e91 c2bd
00000320: c7de a1bc 3f84 0ebd f280 c93d 02b7 c8bd
00000330: 56db cbbc e2df 1cbd c71e 5fbd 4065 c03c
00000340: 7530 e0bc d6c6 8cbd fb6b b1bd 20f7 0cbd
00000350: 9fd4 17bd 0863 8f3d 8419 84bc 7aa9 3dbd
00000360: 6f21 cbbd 8cc0 95bc dcca 9d3d 48f7 d0bb
00000370: 90c8 5dbd c500 3bbd a23c 3c3d b24b 05bd
00000380: adec 8bbc 459d a73d 5b46 1cbd f5ae 9c3d
00000390: 012a eabb 75b0 39bb 38fb a13c c48d a43d
000003a0: 5744 0cbd 9af3 303c 0558 babc 6b52 9e3d
000003b0: 7f7a 4a3d 3199 5fbd 86b5 22bd 125e 13be
000003c0: 3a1f 65bc 79c9 da3c 0748 0d3d 6116 1e3c
000003d0: 1e20 e83c 8802 5e3d 7eae debc 1dbe ac3c
000003e0: e09f f5bc 356d 1c3c e11b 203d 5d20 52bd
000003f0: 7764 f3bc 62ad 14bd eebb 8b3d 1171 fbbc

fc3.bias f4 [64]
0.08556479 -0.08693479 -0.09863412 -0.07604963 -0.019966042 0.04674389 -0.059192058 0.012174866
0.022948015 -0.055593822 0.01764843 0.06506734 -0.0379438 -0.05766153 -0.01409935 -0.03297491
0.07716489 0.0060758423 -0.08384566 -0.012605243 0.045710802 -0.039174724 0.026998017 -0.057657387
-0.045237165 -0.059959058 0.040504396 -0.024979237 0.08391642 -0.038304783 0.037044536 0.056713708
-0.035002984 -0.049802106 0.039774183 -0.047530543 0.026913589 -0.067026466 -0.06262618 0.054739546
0.039083406 0.07013868 -0.03244651 -0.017004566 0.070708185 -0.029147988 -0.09350471 0.030952685
0.05636086 0.040016796 -0.01578345 -0.059803512 -0.033231128 -0.021012114 0.06323851 0.043084737
0.07410869 -0.011290845 -0.08896438 -0.048930015 0.046433892 0.020080425 -0.08361702 0.07425084
00000000: 983c af3d de0a b2bd af00 cabd e9bf 9bbd
00000010: d38f a3bc 8576 3f3d 5f73 72bd 1779 473c
00000020: 7afd bb3c 59b6 63bd 7193 903c 0742 853d
00000030: f56a 1bbd 7f2e 6cbd f600 67bc b310 07bd
00000040: a008 9e3d dc17 c73b 46b7 abbd 3986 4ebc
00000050: 403b 3b3d ad75 20bd f22a dd3c 272a 6cbd
00000060: 9b4a 39bd a197 75bd f0e7 253d 42a1 ccbc
00000070: 5fdc ab3d 7ae5 1cbd 03bc 173d a24c 683d
00000080: 4a5f 0fbd 4bfd 4bbd 41ea 223d 63af 42bd
00000090: e379 dc3c 2c45 89bd 2842 80bd 9336 603d
000000a0: ec15 203d dea4 8f3d a2e6 04bd 294d 8bbc
000000b0: 74cf 903d c3c7 eebc 667f bfbd 7c90 fd3c
000000c0: a5da 663d a7e8 233d 4b4c 81bc 87f4 74bd
000000d0: 5d1d 08bd 9921 acbc 3183 813d 9f79 303d
000000e0: 4cc6 973d 3dfd 38bc f532 b6bd d76a 48bd
000000f0: 7731 3e3d b47f a43c 663f abbd d310 983d

fc4.weight f4 [1, 64]
0.18775973 0.17769581 0.18122892 0.09613621 0.17564695 0.29050657 0.10634612 0.1566386
0.13230696 0.17931972 0.15994152 0.19511679 0.30225474 0.13599657 0.09854468 0.18081568
0.24112546 0.17957866 0.23008457 0.23489925 0.24916835 0.22614886 0.26637852 0.15978919
0.3066754 0.19237524 0.15017915 0.24100497 0.1756376 0.23101506 0.15885857 0.0793296
0.12446576 0.1975807 0.213162 0.2150802 0.21170226 0.10557345 0.14971396 0.26629984
0.0840439 0.1997576 0.26653588 0.227177 0.19536513 0.22212574 0.12808937 0.14623724
0.15374842 0.30900928 0.13877118 0.2773205 0.10018766 0.16901527 0.20726432 0.29472652
0.28709307 0.21422362 0.232834 0.19386262 0.11651735 0.15374932 0.2259614 0.30568397
00000000: 1644 403e e4f5 353e 1394 393e 10e3 c43d
00000010: cbdc 333e 47bd 943e ffcb d93d df65 203e
00000020: 7a7b 073e 979f 373e b6c7 233e b2cc 473e
00000030: 22c1 9a3e af42 0b3e cbd1 c93d bf27 393e
00000040: 98e9 763e 78e3 373e 4a9b 6b3e 6e89 703e
00000050: fd25 7f3e 9193 673e c462 883e c79f 233e
00000060: 8f04 9d3e 04fe 443e 90c8 193e 02ca 763e
00000070: 58da 333e 368f 6c3e d2ab 223e 8f77 a23d
00000080: e8e7 fe3d 9852 4a3e 2447 5a3e fc3d 5c3e
00000090: 7ac8 583e e536 d83d 9e4e 193e 7458 883e
000000a0: 351f ac3d 428d 4c3e 6477 883e 16a1 683e
000000b0: cc0d 483e ee74 633e dc29 033e 37bf 153e
000000c0: 3a70 1d3e 7736 9e3e 081a 0e3e f4fc 8d3e
000000d0: 302f cd3d 5712 2d3e 193d 543e 65e6 963e
000000e0: ddfd 923e 705d 5b3e 096c 6e3e ec83 463e
000000f0: a6a0 ee3d 7670 1d3e 6d62 673e 9c82 9c3e

bn1.weight f4 [256]
0.9896223 0.9150244 1.0678505 0.9709234 1.0349883 0.993519 0.9612489 0.973522
1.0519633 1.0115148 0.9756893 0.995168 0.9290355 0.94062585 1.0185558 0.91999656
1.0019672 0.9859577 0.96243805 0.948756 0.9854715 0.9758642 1.0069995 0.93351334
1.0002416 0.93539953 0.99119514 1.0545541 0.93738776 1.0254027 0.9442283 0.95615196
0.96676886 0.9256186 0.9663618 0.97962636 0.94681746 1.0052713 0.9604203 0.96975595
1.0189357 1.010082 1.0110573 0.9523757 0.9844445 0.99039215 1.0022814 0.9605901
1.029441 0.9466756 0.99915075 0.9700415 0.95766914 0.94782764 0.9587556 0.9412074
0.9473554 0.97835803 0.97508806 1.0071763 1.0417831 1.0382144 0.9530478 1.0340009
1.021168 1.0366013 0.9661531 0.9636524 1.039787 0.9357626 0.9644456 1.0660807
1.0222919 1.0163153 1.0333159 0.94555014 0.977892 0.96032447 0.9734209 1.0626059
0.93030715 0.94027054 0.99067926 0.9991467 0.98337984 1.0300522 0.9812681 0.9912562
0.9756247 0.9896472 1.0002605 0.94607466 0.9467346 0.9662209 0.96728456 0.97261864
0.96802646 1.0416003 0.98075336 1.0171112 0.9463952 0.9719915 1.0381778 0.9464482
0.9563877 0.94757783 1.0028582 0.9957456 0.9914785 0.99200433 0.9489411 1.0213245
0.9527933 0.96335363 1.0110197 0.96666586 1.0233933 0.9780679 0.92660147 1.0548643
0.98301506 0.9552255 1.0189216 1.0126882 0.9563277 0.96636105 0.99277294 0.9688837
1.0406718 0.95556194 0.95873445 1.0338078 0.9939876 1.0056381 0.9996875 0.95256764
0.9858486 0.9958991 1.0268943 1.0763534 0.99066406 0.9857215 1.0361577 0.98678255
1.058703 0.99604785 1.015003 1.0609324 1.0531353 1.0321798 0.96532726 0.9396729
0.987085 0.9701543 1.0066451 0.97409546 1.0467427 0.9371165 0.93746656 1.0238929
1.0209191 1.0319448 0.9928894 1.0460132 1.0390846 1.0278872 0.9396635 0.9929883
0.9686788 0.94443417 1.0356563 0.99475706 0.99491173 0.9866861 1.0308669 0.99964595
1.0207975 0.99453413 1.0058099 0.97452205 0.9934845 0.97747236 1.035021 0.9511274
0.97518516 1.0135008 0.9456515 0.9648054 0.9341684 0.96984994 0.9919256 1.0087552
0.9965266 0.9847309 1.0009325 0.99308646 0.9817734 0.9931959 0.98686224 0.98874986
0.9919734 0.9970872 0.9507293 1.0653604 0.9405425 1.0597737 0.9355046 1.00944
0.99958384 0.9645223 1.0216259 0.9441618 0.9276736 1.0326432 1.0227654 1.0219032
0.9590311 0.9970037 0.99085355 0.9849305 1.0198405 0.96114135 0.99507666 0.95197153
1.001899 0.9536338 1.0064455 0.9983986 0.99649554 0.98906314 1.0235255 0.96820813
0.9982348 1.0144863 1.0280422 0.9947573 0.97061235 0.95430213 0.9754515 1.0418404
1.0108298 0.9614294 0.9902085 0.96636873 0.90921503 0.9860319 0.93912077 0.97115225
0.9767231 1.0178467 1.0449302 0.97729504 0.9957854 1.0317045 1.038982 0.95422244
00000000: e357 7d3f 0a3f 6a3f 53af 883f 708e 783f
00000010: 7f7a 843f 4357 7e3f 6814 763f bd38 793f
00000020: bca6 863f 5179 813f c6c6 793f 54c3 7e3f
00000030: 45d5 6d3f dbcc 703f 0960 823f e584 6b3f
00000040: 7640 803f b967 7c3f 5762 763f ace1 723f
00000050: dc47 7c3f 3cd2 793f 5ce5 803f bbfa 6e3f
00000060: eb07 803f 5876 6f3f f7be 7d3f a1fb 863f
00000070: a5f8 6f3f 6540 833f f2b8 713f 60c6 743f
00000080: 2a7e 773f 57f5 6c3f 7d63 773f cbc8 7a3f
00000090: a162 723f bbac 803f 1bde 753f ed41 783f
000000a0: 7c6c 823f 5e4a 813f 536a 813f e5ce 733f
000000b0: 8e04 7c3f 578a 7d3f c24a 803f 3ce9 753f
000000c0: b9c4 833f 5559 723f 58c8 7f3f a454 783f
000000d0: ce29 753f d5a4 723f 0271 753f f8f2 703f
000000e0: e285 723f ac75 7a3f 5f9f 793f 27eb 803f
000000f0: 2659 853f 36e4 843f f1fa 733f 245a 843f
00000100: a2b5 823f 5aaf 843f cf55 773f ecb1 763f
00000110: be17 853f 238e 6f3f e8e5 763f 5575 883f
00000120: 76da 823f 9f16 823f b243 843f 930f 723f
00000130: 2157 7a3f d3d7 753f 1d32 793f 7803 883f
00000140: 9c28 6e3f 92b5 703f 289d 7d3f 14c8 7f3f
00000150: c8be 7b3f c0d8 833f 6334 7b3f f7c2 7d3f
00000160: 8ac2 793f 8559 7d3f 8908 803f f331 723f
00000170: 335d 723f 415a 773f f69f 773f 89fd 783f
00000180: 95d0 773f 2953 853f a712 7b3f b330 823f
00000190: f546 723f 6fd4 783f 03e3 843f 6e4a 723f
000001a0: d3d5 743f 7694 723f a85d 803f 2fe9 7e3f
000001b0: 89d1 7d3f fff3 7d3f ceed 723f c3ba 823f
000001c0: 43ea 733f 589e 763f 1869 813f 6a77 773f
000001d0: 8dfe 823f a862 7a3f c135 6d3f cb05 873f
000001e0: e0a6 7b3f a989 743f 066c 823f c49f 813f
000001f0: e4d1 743f 7063 773f 5e26 7e3f c308 783f
00000200: bc34 853f b59f 743f 9f6f 753f d053 843f
00000210: f975 7e3f c0b8 803f 85eb 7f3f 79db 733f
00000220: 9360 7c3f 3ef3 7e3f 4671 833f f3c5 893f
00000230: 299c 7d3f 3f58 7c3f d1a0 843f c89d 7c3f
00000240: 9483 873f fefc 7e3f 9eeb 813f a2cc 873f
00000250: 23cd 863f 781e 843f b01f 773f 678e 703f
00000260: 9ab1 7c3f 085c 783f bfd9 803f 525e 793f
00000270: aafb 853f dee6 6f3f cffd 6f3f ec0e 833f
00000280: 7aad 823f c416 843f 002e 7e3f c3e3 853f
00000290: b900 853f cf91 833f ca8d 703f 7b34 7e3f
000002a0: 55fb 773f 70c6 713f 6390 843f 66a8 7e3f
000002b0: 89b2 7e3f 7697 7c3f 72f3 833f cce8 7f3f
000002c0: 7ea9 823f ca99 7e3f 61be 803f 477a 793f
000002d0: 0055 7e3f a13b 7a3f 917b 843f 167d 733f
000002e0: bca5 793f 65ba 813f 3716 723f 7dfd 763f
000002f0: a925 6f3f 1648 783f d6ee 7d3f e41e 813f
00000300: 5e1c 7f3f 5317 7c3f 8e1e 803f ea3a 7e3f
00000310: 8055 7b3f 1642 7e3f 01a3 7c3f b61e 7d3f
00000320: f8f1 7d3f 1b41 7f3f ff62 733f bb5d 883f
00000330: 65c7 703f aaa6 873f 3b7d 6f3f 5435 813f
00000340: bae4 7f3f efea 763f a3c4 823f 96b4 713f
00000350: 047c 6d3f a72d 843f fae9 823f b9cd 823f
00000360: 1083 753f a23b 7f3f 94a8 7d3f 6824 7c3f
00000370: 228a 823f 5c0d 763f 58bd 7e3f 68b4 733f
00000380: 3a3e 803f 5821 743f 35d3 803f 0d97 7f3f
00000390: 551a 7f3f 3e33 7d3f e202 833f 7ddc 773f
000003a0: 518c 7f3f b0da 813f e396 833f 6aa8 7e3f
000003b0: 0d7a 783f 254d 743f 31b7 793f 075b 853f
000003c0: df62 813f 3d20 763f 4e7e 7d3f f163 773f
000003d0: 51c2 683f 966c 7c3f 386a 703f 6f9d 783f
000003e0: 860a 7a3f cd48 823f 46c0 853f 0230 7a3f
000003f0: cbeb 7e3f e50e 843f 5dfd 843f ec47 743f

bn1.bias f4 [256]
-0.14313765 -0.06591281 -0.10488785 -0.0025338437 -0.11739135 -0.07953616 -0.011710655 -0.030845096
-0.17443363 -0.04492945 -0.1901883 -0.1147346 -0.05971318 -0.06549186 -0.093665145 -0.065353446
-0.048474684 -0.14662468 -0.14471403 -0.04530338 -0.26064646 -0.048342705 -0.07612342 -0.05595661
-0.2641996 -0.060709264 -0.04494524 -0.12624799 -0.055446 -0.090898186 -0.040266495 -0.034488983
-0.0394977 -0.05954093 -0.07511711 -0.09890145 -0.038721856 -0.02497217 -0.040729146 -0.11942289
-0.062857494 -0.025648663 -0.045807004 -0.10946279 -0.19114034 -0.063746534 -0.100187376 -0.0053614173
-0.07043173 -0.06424655 -0.12749146 -0.030936899 -0.021490501 -0.024801949 -0.042982727 -0.0502181
-0.1653271 -0.14227177 -0.05077937 0.0044074287 -0.09520847 -0.1054277 -0.032117724 -0.11963744
-0.08795196 -0.095846206 -0.020267935 -0.09555041 -0.082354106 -0.043398675 -0.06910279 -0.14098713
-0.0634063 -0.0502622 -0.058731377 -0.04284543 -0.036175285 -0.011479674 -0.09810801 -0.14537184
-0.07634491 -0.040014688 -0.23443653 -0.2282585 -0.13815819 -0.08172986 -0.22876942 -0.19561869
-0.073043235 -0.1446433 -0.06444643 -0.04106795 -0.04979823 -0.21273339 -0.05711427 -0.09273909
-0.084434584 -0.0739478 -0.08386896 -0.10496576 -0.118379235 -0.02237798 -0.116857775 -0.24803822
-0.024769729 -0.0985212 -0.05975137 -0.08789226 -0.24221255 -0.0052324864 -0.01312621 -0.08355396
-0.1590805 -0.16389915 -0.24232922 -0.03157171 -0.048687972 -0.22609504 -0.057787795 -0.12552248
-0.04565614 -0.14685525 -0.058413193 -0.062447924 -0.02902522 -0.25198704 -0.19189438 -0.18893453
-0.13269025 -0.20567608 -0.036221784 -0.08459199 -0.08125441 -0.0998503 -0.08031723 -0.09763732
-0.051442906 0.025019513 -0.04028248 -0.1440598 -0.08094089 -0.038834494 -0.06902875 -0.18571955
-0.09972947 0.02423944 -0.078609325 -0.10709328 -0.06855147 -0.119046725 -0.044630624 -0.04645622
-0.047743704 -0.2978456 -0.06620686 -0.0150719555 -0.08677729 -0.23347542 -0.042005442 -0.09021593
-0.062408548 -0.0831957 -0.23538476 -0.07782579 -0.14222421 -0.08976167 -0.048863515 0.021158276
-0.057566594 -0.05103706 -0.12875754 -0.116913855 -0.21615177 -0.19491155 -0.08358421 -0.106013045
-0.089452595 0.0030338236 -0.17818958 -0.19166523 -0.29999635 -0.019537915 -0.12764293 -0.057075903
-0.056376018 -0.0627643 -0.069672376 -0.15667772 -0.05795777 -0.089463405 -0.0906464 -0.06517383
0.018631717 -0.077984095 -0.025167586 -0.22625317 -0.020436063 -0.086968035 -0.07953802 -0.064762734
-0.011390985 -0.1839996 -0.024758128 -0.13516499 -0.045817807 -0.11382843 -0.13044143 -0.2408219
-0.2514069 -0.2152472 -0.15619758 -0.04358185 -0.055379484 -0.07634641 -0.0873796 -0.096076466
-0.012724117 -0.07825657 -0.03910154 -0.050249055 -0.06930725 -0.009611154 -0.064218335 -0.03728485
-0.05376031 -0.1097977 -0.036081802 -0.2801452 -0.11527541 -0.05216113 -0.0853249 -0.21378446
0.0016087961 -0.06717988 -0.085056424 -0.048678853 -0.025886564 -0.04122584 -0.072133504 -0.1232584
0.018495765 -0.020596052 -0.023177262 -0.07504645 -0.063726254 -0.054010995 -0.11187814 -0.17760712
-0.030739954 -0.07923815 -0.10633442 -0.047801908 -0.02946775 -0.072353855 -0.09142232 -0.11256974
00000000: ad92 12be 4cfd 86bd 71cf d6bd d80e 26bb
00000010: e06a f0bd dbe3 a2bd 0cde 3fbc dbae fcbc
00000020: bb9e 32be f107 38bd b9c0 42be f9f9 eabd
00000030: cf95 74bd 9920 86bd 83d3 bfbd 07d8 85bd
00000040: 648d 46bd c824 16be ea2f 14be 0990 39bd
00000050: 7473 85be 0003 46bd 98e6 9bbd c232 65bd
00000060: 2c45 87be 47aa 78bd 8018 38bd 2747 01be
00000070: 581b 63bd d428 babd 7bee 24bd 5244 0dbd
00000080: 57c8 21bd 31e1 73bd 00d7 99bd d88c cabd
00000090: cf9a 1ebd 7092 ccbc 9bd3 26bd fd93 f4bd
000000a0: 6ebb 80bd 251d d2bc 20a0 3bbd 072e e0bd
000000b0: 4bba 43be 8b8d 82bd 0a2f cdbd d4ae afbb
000000c0: 833e 90bd b293 83bd 1f8d 02be 616f fdbc
000000d0: d90c b0bc 752d cbbc a80e 30bd 7fb1 4dbd
000000e0: 824b 29be b1af 11be 07fe 4fbd 316c 903b
000000f0: a9fc c2bd 7aea d7bd e08d 03bd 7904 f5bd
00000100: 2820 b4bd 044b c4bd f108 a6bc efaf c3bd
00000110: 45a9 a8bd cfc2 31bd c385 8dbd ee5e 10be
00000120: 2adb 81bd bddf 4dbd 5090 70bd b17e 2fbd
00000130: 892c 14bd 3e15 3cbc daec c8bd 5bdc 14be
00000140: b85a 9cbd 71e6 23bd 2110 70be 99bc 69be
00000150: 5779 0dbe fc61 a7bd 8842 6abe 4450 48be
00000160: b197 95bd 601d 14be 7dfc 83bd de36 28bd
00000170: 3bf9 4bbd c8d6 59be a7f0 69bd feed bdbd
00000180: 0aec acbd f271 97bd 7dc3 abbd 4af8 d6bd
00000190: d070 f2bd 0752 b7bc 2153 efbd bbfd 7dbe
000001a0: e3e9 cabc 7cc5 c9bd dabd 74bd db00 b4bd
000001b0: 9106 78be 4775 abbb 510f 57bc 571e abbd
000001c0: 00e6 22be 2ed5 27be 2725 78be 5651 01bd
000001d0: 0a6d 47bd 7585 67be e5b2 6cbd f788 00be
000001e0: ef01 3bbd 3961 16be ac42 6fbd 65c9 7fbd
000001f0: 4cc6 edbc 7204 81be f67f 44be 0e78 41be
00000200: f4df 07be c09c 52be 4b5d 14bd 913e adbd
00000210: b668 a6bd 507e ccbd 5c7d a4bd 13f6 c7bd
00000220: ccb5 52bd b9f5 cc3c 3eff 24bd 6a84 13be
00000230: 56c4 a5bd eb10 1fbd f25e 8dbd 442d 3ebe
00000240: f73e ccbd ca91 c63c edfd a0bd b953 dbbd
00000250: b764 8cbd c5ce f3bd 9ace 36bd e148 3ebd
00000260: e78e 43bd 387f 98be 7697 87bd 5df0 76bc
00000270: 4bb8 b1bd 2e14 6fbe e60d 2cbd 21c3 b8bd
00000280: 1ba0 7fbd 8262 aabd b408 71be 2163 9fbd
00000290: 39a3 11be f7d4 b7bd 1c25 48bd 1f54 ad3c
000002a0: f3ca 6bbd 3c0c 51bd 04d9 03be 8870 efbd
000002b0: e456 5dbe e596 47be 332e abbd 5e1d d9bd
000002c0: ec32 b7bd 1dd3 463b 5477 36be e443 44be
000002d0: 1f99 99be fa0d a0bc d4b4 02be 6cc8 69bd
000002e0: 8aea 66bd 928a 80bd 64b0 8ebd 2070 20be
000002f0: 2065 6dbd 9738 b7bd d2a4 b9bd db79 85bd
00000300: 8ba1 983c 20b6 9fbd 412c cebc e9ae 67be
00000310: 8869 a7bc 4c1c b2bd d4e4 a2bd 53a2 84bd
00000320: 41a1 3abc 646a 3cbe 8fd1 cabc b168 0abe
00000330: 74ab 3bbd e11e e9bd 7092 05be 049a 76be
00000340: 68b8 80be c369 5cbe 42f2 1fbe e282 32bd
00000350: 99d5 62bd 825b 9cbd 13f4 b2bd bdc3 c4bd
00000360: d178 50bc fb44 a0bd f028 20bd f4d1 4dbd
00000370: f6f0 8dbd 1a78 1dbc e784 83bd 00b8 18bd
00000380: c533 5cbd 9edd e0bd 83ca 13bd 316f 8fbe
00000390: 8415 ecbd e9a6 55bd d2be aebd 50ea 5abe
000003a0: 3dde d23a 9b95 89bd 1032 aebd 7a63 47bd
000003b0: 0f10 d4bc 6ddc 28bd bbba 93bd e66e fcbd
000003c0: 6e84 973c 0db9 a8bc 3ede bdbc f4b1 99bd
000003d0: e982 82bd a23a 5dbd 5e20 e5bd a4de 35be
000003e0: 5bd2 fbbc 9c47 a2bd dcc5 d9bd efcb 43bd
000003f0: 5a66 f1bc 422e 94bd a03b bbbd f78a e6bd
